…
x_train shape: (271915, 6212)
x_test shape: (33989, 6212)
Model: "model"
__________________________________________________________________________________________________
 Layer (type)                   Output Shape         Param #     Connected to                     
==================================================================================================
 input_1 (InputLayer)           [(None, 6212)]       0           []                               
                                                                                                  
 dense (Dense)                  (None, 1024)         6362112     ['input_1[0][0]']                
                                                                                                  
 batch_normalization (BatchNorm  (None, 1024)        4096        ['dense[0][0]']                  
 alization)                                                                                       
                                                                                                  
 dense_1 (Dense)                (None, 1024)         1049600     ['batch_normalization[0][0]']    
                                                                                                  
 batch_normalization_1 (BatchNo  (None, 1024)        4096        ['dense_1[0][0]']                
 rmalization)                                                                                     
                                                                                                  
 dense_2 (Dense)                (None, 1024)         1049600     ['batch_normalization[0][0]']    
                                                                                                  
 multiply (Multiply)            (None, 1024)         0           ['batch_normalization_1[0][0]',  
                                                                  'dense_2[0][0]']                
                                                                                                  
 dense_3 (Dense)                (None, 1024)         1049600     ['multiply[0][0]']               
                                                                                                  
 batch_normalization_2 (BatchNo  (None, 1024)        4096        ['dense_3[0][0]']                
 rmalization)                                                                                     
                                                                                                  
 dropout (Dropout)              (None, 1024)         0           ['batch_normalization_2[0][0]']  
                                                                                                  
 dense_4 (Dense)                (None, 1024)         1049600     ['dropout[0][0]']                
                                                                                                  
 batch_normalization_3 (BatchNo  (None, 1024)        4096        ['dense_4[0][0]']                
 rmalization)                                                                                     
                                                                                                  
 dropout_1 (Dropout)            (None, 1024)         0           ['batch_normalization_3[0][0]']  
                                                                                                  
 dense_5 (Dense)                (None, 1024)         1049600     ['dropout_1[0][0]']              
                                                                                                  
 batch_normalization_4 (BatchNo  (None, 1024)        4096        ['dense_5[0][0]']                
 rmalization)                                                                                     
                                                                                                  
 dropout_2 (Dropout)            (None, 1024)         0           ['batch_normalization_4[0][0]']  
                                                                                                  
 dense_6 (Dense)                (None, 1024)         1049600     ['dropout_2[0][0]']              
                                                                                                  
 batch_normalization_5 (BatchNo  (None, 1024)        4096        ['dense_6[0][0]']                
 rmalization)                                                                                     
                                                                                                  
 dropout_3 (Dropout)            (None, 1024)         0           ['batch_normalization_5[0][0]']  
                                                                                                  
 dense_7 (Dense)                (None, 2)            2050        ['dropout_3[0][0]']              
                                                                                                  
==================================================================================================
Total params: 12,686,338
Trainable params: 12,674,050
Non-trainable params: 12,288
__________________________________________________________________________________________________
…
