…
x_train shape: (271915, 6212)
x_test shape: (33989, 6212)
Model: "model"
__________________________________________________________________________________________________
 Layer (type)                   Output Shape         Param #     Connected to                     
==================================================================================================
 input_1 (InputLayer)           [(None, 6212)]       0           []                               
                                                                                                  
 dense (Dense)                  (None, 478)          2969814     ['input_1[0][0]']                
                                                                                                  
 batch_normalization (BatchNorm  (None, 478)         1912        ['dense[0][0]']                  
 alization)                                                                                       
                                                                                                  
 dense_1 (Dense)                (None, 978)          468462      ['batch_normalization[0][0]']    
                                                                                                  
 batch_normalization_1 (BatchNo  (None, 978)         3912        ['dense_1[0][0]']                
 rmalization)                                                                                     
                                                                                                  
 dense_2 (Dense)                (None, 978)          468462      ['batch_normalization[0][0]']    
                                                                                                  
 multiply (Multiply)            (None, 978)          0           ['batch_normalization_1[0][0]',  
                                                                  'dense_2[0][0]']                
                                                                                                  
 dense_3 (Dense)                (None, 82)           80278       ['multiply[0][0]']               
                                                                                                  
 batch_normalization_2 (BatchNo  (None, 82)          328         ['dense_3[0][0]']                
 rmalization)                                                                                     
                                                                                                  
 dropout (Dropout)              (None, 82)           0           ['batch_normalization_2[0][0]']  
                                                                                                  
 dense_4 (Dense)                (None, 385)          31955       ['dropout[0][0]']                
                                                                                                  
 batch_normalization_3 (BatchNo  (None, 385)         1540        ['dense_4[0][0]']                
 rmalization)                                                                                     
                                                                                                  
 dropout_1 (Dropout)            (None, 385)          0           ['batch_normalization_3[0][0]']  
                                                                                                  
 dense_5 (Dense)                (None, 404)          155944      ['dropout_1[0][0]']              
                                                                                                  
 batch_normalization_4 (BatchNo  (None, 404)         1616        ['dense_5[0][0]']                
 rmalization)                                                                                     
                                                                                                  
 dropout_2 (Dropout)            (None, 404)          0           ['batch_normalization_4[0][0]']  
                                                                                                  
 dense_6 (Dense)                (None, 40)           16200       ['dropout_2[0][0]']              
                                                                                                  
 batch_normalization_5 (BatchNo  (None, 40)          160         ['dense_6[0][0]']                
 rmalization)                                                                                     
                                                                                                  
 dropout_3 (Dropout)            (None, 40)           0           ['batch_normalization_5[0][0]']  
                                                                                                  
 dense_7 (Dense)                (None, 2)            82          ['dropout_3[0][0]']              
                                                                                                  
==================================================================================================
Total params: 4,200,665
Trainable params: 4,195,931
Non-trainable params: 4,734
__________________________________________________________________________________________________
…
