…
x_train shape: (271915, 6212)
x_test shape: (33989, 6212)
Model: "model"
__________________________________________________________________________________________________
 Layer (type)                   Output Shape         Param #     Connected to                     
==================================================================================================
 input_1 (InputLayer)           [(None, 6212)]       0           []                               
                                                                                                  
 dense (Dense)                  (None, 68)           422484      ['input_1[0][0]']                
                                                                                                  
 batch_normalization (BatchNorm  (None, 68)          272         ['dense[0][0]']                  
 alization)                                                                                       
                                                                                                  
 dense_1 (Dense)                (None, 849)          58581       ['batch_normalization[0][0]']    
                                                                                                  
 batch_normalization_1 (BatchNo  (None, 849)         3396        ['dense_1[0][0]']                
 rmalization)                                                                                     
                                                                                                  
 dense_2 (Dense)                (None, 849)          58581       ['batch_normalization[0][0]']    
                                                                                                  
 multiply (Multiply)            (None, 849)          0           ['batch_normalization_1[0][0]',  
                                                                  'dense_2[0][0]']                
                                                                                                  
 dense_3 (Dense)                (None, 10)           8500        ['multiply[0][0]']               
                                                                                                  
 batch_normalization_2 (BatchNo  (None, 10)          40          ['dense_3[0][0]']                
 rmalization)                                                                                     
                                                                                                  
 dropout (Dropout)              (None, 10)           0           ['batch_normalization_2[0][0]']  
                                                                                                  
 dense_4 (Dense)                (None, 116)          1276        ['dropout[0][0]']                
                                                                                                  
 batch_normalization_3 (BatchNo  (None, 116)         464         ['dense_4[0][0]']                
 rmalization)                                                                                     
                                                                                                  
 dropout_1 (Dropout)            (None, 116)          0           ['batch_normalization_3[0][0]']  
                                                                                                  
 dense_5 (Dense)                (None, 720)          84240       ['dropout_1[0][0]']              
                                                                                                  
 batch_normalization_4 (BatchNo  (None, 720)         2880        ['dense_5[0][0]']                
 rmalization)                                                                                     
                                                                                                  
 dropout_2 (Dropout)            (None, 720)          0           ['batch_normalization_4[0][0]']  
                                                                                                  
 dense_6 (Dense)                (None, 916)          660436      ['dropout_2[0][0]']              
                                                                                                  
 batch_normalization_5 (BatchNo  (None, 916)         3664        ['dense_6[0][0]']                
 rmalization)                                                                                     
                                                                                                  
 dropout_3 (Dropout)            (None, 916)          0           ['batch_normalization_5[0][0]']  
                                                                                                  
 dense_7 (Dense)                (None, 2)            1834        ['dropout_3[0][0]']              
                                                                                                  
==================================================================================================
Total params: 1,306,648
Trainable params: 1,301,290
Non-trainable params: 5,358
__________________________________________________________________________________________________
…
