…
x_train shape: (271915, 6212)
x_test shape: (33989, 6212)
Model: "model"
__________________________________________________________________________________________________
 Layer (type)                   Output Shape         Param #     Connected to                     
==================================================================================================
 input_1 (InputLayer)           [(None, 6212)]       0           []                               
                                                                                                  
 dense (Dense)                  (None, 1000)         6213000     ['input_1[0][0]']                
                                                                                                  
 batch_normalization (BatchNorm  (None, 1000)        4000        ['dense[0][0]']                  
 alization)                                                                                       
                                                                                                  
 dense_1 (Dense)                (None, 1000)         1001000     ['batch_normalization[0][0]']    
                                                                                                  
 batch_normalization_1 (BatchNo  (None, 1000)        4000        ['dense_1[0][0]']                
 rmalization)                                                                                     
                                                                                                  
 dense_2 (Dense)                (None, 1000)         1001000     ['batch_normalization[0][0]']    
                                                                                                  
 multiply (Multiply)            (None, 1000)         0           ['batch_normalization_1[0][0]',  
                                                                  'dense_2[0][0]']                
                                                                                                  
 dense_3 (Dense)                (None, 500)          500500      ['multiply[0][0]']               
                                                                                                  
 batch_normalization_2 (BatchNo  (None, 500)         2000        ['dense_3[0][0]']                
 rmalization)                                                                                     
                                                                                                  
 dropout (Dropout)              (None, 500)          0           ['batch_normalization_2[0][0]']  
                                                                                                  
 dense_4 (Dense)                (None, 250)          125250      ['dropout[0][0]']                
                                                                                                  
 batch_normalization_3 (BatchNo  (None, 250)         1000        ['dense_4[0][0]']                
 rmalization)                                                                                     
                                                                                                  
 dropout_1 (Dropout)            (None, 250)          0           ['batch_normalization_3[0][0]']  
                                                                                                  
 dense_5 (Dense)                (None, 125)          31375       ['dropout_1[0][0]']              
                                                                                                  
 batch_normalization_4 (BatchNo  (None, 125)         500         ['dense_5[0][0]']                
 rmalization)                                                                                     
                                                                                                  
 dropout_2 (Dropout)            (None, 125)          0           ['batch_normalization_4[0][0]']  
                                                                                                  
 dense_6 (Dense)                (None, 60)           7560        ['dropout_2[0][0]']              
                                                                                                  
 batch_normalization_5 (BatchNo  (None, 60)          240         ['dense_6[0][0]']                
 rmalization)                                                                                     
                                                                                                  
 dropout_3 (Dropout)            (None, 60)           0           ['batch_normalization_5[0][0]']  
                                                                                                  
 dense_7 (Dense)                (None, 2)            122         ['dropout_3[0][0]']              
                                                                                                  
==================================================================================================
Total params: 8,891,547
Trainable params: 8,885,677
Non-trainable params: 5,870
__________________________________________________________________________________________________
…
